name: "Modified-SiamesePlaces205-CNN-test"
input: "data"
input_shape {
  dim: 1
  dim: 3
  dim: 227
  dim: 227
}
layer {
  name: "conv1"
  type: "Convolution"
  bottom: "data"
  top: "conv1"
  param {
    name: "conv1_w"
    lr_mult: 1
    decay_mult: 1
  }
  param {
    name: "conv1_b"
    lr_mult: 2
    decay_mult: 0
  }
  convolution_param {
    num_output: 96
    kernel_size: 11
    stride: 4
    weight_filler {
      type: "gaussian"
      std: 0.01
    }
    bias_filler {
      type: "constant"
      value: 0
    }
  }
}
layer {
  bottom: "conv1"
  top: "conv1"
  name: "relu1"
  type: "ReLU"
}
layer {
  bottom: "conv1"
  top: "pool1"
  name: "pool1"
  type: "Pooling"
  pooling_param {
    pool: MAX
    kernel_size: 3
    stride: 2
  }
}
layer {
  bottom: "pool1"
  top: "norm1"
  name: "norm1"
  type: "LRN"
  lrn_param {
    local_size: 5
    alpha: 0.0001
    beta: 0.75
  }
}
layer {
  bottom: "norm1"
  top: "conv2"
  name: "conv2"
  type: "Convolution"
  param {
    name: "conv2_w"
    lr_mult: 1
    decay_mult: 1
  }
  param {
    name: "conv2_b"
    lr_mult: 2
    decay_mult: 0
  }
  convolution_param {
    num_output: 256
    pad: 2
    kernel_size: 5
    group: 2
    weight_filler {
      type: "gaussian"
      std: 0.01
    }
    bias_filler {
      type: "constant"
      value: 1
    }
  }
}
layer {
  bottom: "conv2"
  top: "conv2"
  name: "relu2"
  type: "ReLU"
}
layer {
  bottom: "conv2"
  top: "pool2"
  name: "pool2"
  type: "Pooling"
  pooling_param {
    pool: MAX
    kernel_size: 3
    stride: 2
  }
}
layer {
  bottom: "pool2"
  top: "norm2"
  name: "norm2"
  type: "LRN"
  lrn_param {
    local_size: 5
    alpha: 0.0001
    beta: 0.75
  }
}
layer {
  bottom: "norm2"
  top: "conv3"
  name: "conv3"
  type: "Convolution"
  param {
    name: "conv3_w"
    lr_mult: 1
    decay_mult: 1
  }
  param {
    name: "conv3_b"
    lr_mult: 2
    decay_mult: 0
  }
  convolution_param {
    num_output: 384
    pad: 1
    kernel_size: 3
    weight_filler {
      type: "gaussian"
      std: 0.01
    }
    bias_filler {
      type: "constant"
      value: 0
    }
  }
}
layer {
  bottom: "conv3"
  top: "conv3"
  name: "relu3"
  type: "ReLU"
}
layer {
  bottom: "conv3"
  top: "conv4"
  name: "conv4"
  type: "Convolution"
  param {
    name: "conv4_w"
    lr_mult: 1
    decay_mult: 1
  }
  param {
    name: "conv4_b"
    lr_mult: 2
    decay_mult: 0
  }
  convolution_param {
    num_output: 384
    pad: 1
    kernel_size: 3
    group: 2
    weight_filler {
      type: "gaussian"
      std: 0.01
    }
    bias_filler {
      type: "constant"
      value: 1
    }
  }
}
layer {
  bottom: "conv4"
  top: "conv4"
  name: "relu4"
  type: "ReLU"
}
layer {
  bottom: "conv4"
  top: "conv5"
  name: "conv5"
  type: "Convolution"
  param {
    name: "conv5_w"
    lr_mult: 1
    decay_mult: 1
  }
  param {
    name: "conv5_b"
    lr_mult: 2
    decay_mult: 0
  }
  convolution_param {
    num_output: 256
    pad: 1
    kernel_size: 3
    group: 2
    weight_filler {
      type: "gaussian"
      std: 0.01
    }
    bias_filler {
      type: "constant"
      value: 1
    }
  }
}
layer {
  bottom: "conv5"
  top: "conv5"
  name: "relu5"
  type: "ReLU"
}
layer {
  bottom: "conv5"
  top: "pool5"
  name: "pool5"
  type: "Pooling"
  pooling_param {
    pool: MAX
    kernel_size: 3
    stride: 2
  }
}
layer {
  bottom: "pool5"
  top: "fc6"
  name: "fc6"
  type: "InnerProduct"
  param {
    name: "fc6_w"
    lr_mult: 1
    decay_mult: 1
  }
  param {
    name: "fc6_b"
    lr_mult: 2
    decay_mult: 0
  }
  inner_product_param {
    num_output: 4096
    weight_filler {
      type: "gaussian"
      std: 0.005
    }
    bias_filler {
      type: "constant"
      value: 1
    }
  }
}
layer {
  bottom: "fc6"
  top: "fc6"
  name: "relu6"
  type: "ReLU"
}
layer {
  bottom: "fc6"
  top: "fc6"
  name: "drop6"
  type: "Dropout"
  dropout_param {
    dropout_ratio: 0.5
  }
}
layer {
  bottom: "fc6"
  top: "fc7"
  name: "fc7"
  type: "InnerProduct"
  param {
    name: "fc7_w"
    lr_mult: 1
    decay_mult: 1
  }
  param {
    name: "fc7_b"
    lr_mult: 2
    decay_mult: 0
  }
  inner_product_param {
    num_output: 4096
    weight_filler {
      type: "gaussian"
      std: 0.005
    }
    bias_filler {
      type: "constant"
      value: 1
    }
  }
}
layer {
  bottom: "fc7"
  top: "fc7"
  name: "relu7"
  type: "ReLU"
}
layer {
  bottom: "fc7"
  top: "fc7"
  name: "drop7"
  type: "Dropout"
  dropout_param {
    dropout_ratio: 0.5
  }
}
layer {
  bottom: "fc7"
  top: "fc8_s"
  name: "fc8_s"
  type: "InnerProduct"
  param {
    name: "fc8_s_w"
    lr_mult: 1000
    decay_mult: 1
  }
  param {
    name: "fc8_s_b"
    lr_mult: 2000
    decay_mult: 0
  }
  inner_product_param {
    num_output: 1000
    weight_filler {
      type: "gaussian"
      std: 0.01
    }
    bias_filler {
      type: "constant"
      value: 0
    }
  }
}
#softmax branch

layer {
  bottom: "fc8_s"
  top: "fc8_s_r"
  name: "relu8"
  type: "ReLU"
}
layer {
  bottom: "fc8_s_r"
  top: "fc8_s_r"
  name: "drop8"
  type: "Dropout"
  dropout_param {
    dropout_ratio: 0.5
  }
}
layer {
  bottom: "fc8_s_r"
  top: "fc9_f"
  name: "fc9_f"
  type: "InnerProduct"
  param {
    name: "fc9_f_w"
    lr_mult: 1000
    decay_mult: 1
  }
  param {
    name: "fc9_f_b"
    lr_mult: 2000
    decay_mult: 0
  }
  inner_product_param {
    num_output: 6
    weight_filler {
      type: "gaussian"
      std: 0.01
    }
    bias_filler {
      type: "constant"
      value: 0
    }
  }
}


#loss layers

layer {
  bottom: "fc9_f"
  top: "prob1"
  name: "prob1"
  type: "Softmax"
}
